…
fy/train
[34m[1mtrain:[39m[22m /home/endodl/PHASE-1/mln/lesions_cv24/MAIN/data1/YOLO_v11n-cls/data/train... found 40122 images in 3 classes âœ…
[34m[1mval:[39m[22m /home/endodl/PHASE-1/mln/lesions_cv24/MAIN/data1/YOLO_v11n-cls/data/val... found 10105 images in 3 classes âœ…
[34m[1mtest:[39m[22m /home/endodl/PHASE-1/mln/lesions_cv24/MAIN/data1/YOLO_v11n-cls/data/test... found 3756 images in 3 classes âœ…
Overriding model.yaml nc=80 with nc=3
                   from  n    params  module                                       arguments
  0                  -1  1       464  ultralytics.nn.modules.conv.Conv             [3, 16, 3, 2]
  1                  -1  1      4672  ultralytics.nn.modules.conv.Conv             [16, 32, 3, 2]
  2                  -1  1      6640  ultralytics.nn.modules.block.C3k2            [32, 64, 1, False, 0.25]
  3                  -1  1     36992  ultralytics.nn.modules.conv.Conv             [64, 64, 3, 2]
  4                  -1  1     26080  ultralytics.nn.modules.block.C3k2            [64, 128, 1, False, 0.25]
  5                  -1  1    147712  ultralytics.nn.modules.conv.Conv             [128, 128, 3, 2]
  6                  -1  1     87040  ultralytics.nn.modules.block.C3k2            [128, 128, 1, True]
  7                  -1  1    295424  ultralytics.nn.modules.conv.Conv             [128, 256, 3, 2]
  8                  -1  1    346112  ultralytics.nn.modules.block.C3k2            [256, 256, 1, True]
  9                  -1  1    249728  ultralytics.nn.modules.block.C2PSA           [256, 256, 1]
 10                  -1  1    334083  ultralytics.nn.modules.head.Classify         [256, 3]
YOLO11n-cls summary: 151 layers, 1,534,947 parameters, 1,534,947 gradients, 3.3 GFLOPs
Transferred 234/236 items from pretrained weights
[34m[1mAMP: [39m[22mrunning Automatic Mixed Precision (AMP) checks...
[34m[1mAMP: [39m[22mchecks passed âœ…
[34m[1mtrain: [39m[22mScanning /home/endodl/PHASE-1/mln/lesions_cv24/MAIN/data1/YOLO_v11n-cls/data/train... 40122 images, 0 corrupt: 100%|â–ˆâ–ˆâ–ˆâ–ˆâ–ˆâ–ˆâ–ˆâ–ˆâ–ˆâ–ˆ| 40122/40122 [00:00<?, ?it/s]
…
