…
[34m[1mtrain:[0m /home/endodl/PHASE-1/mln/lesions_cv24/MAIN/data1/split_data_yolov11ncls/data1/train... found 37783 images in 15 classes: ERROR ❌️ requires 3 classes, not 15
[34m[1mval:[0m /home/endodl/PHASE-1/mln/lesions_cv24/MAIN/data1/split_data_yolov11ncls/data1/val... found 8101 images in 15 classes: ERROR ❌️ requires 3 classes, not 15
[34m[1mtest:[0m /home/endodl/PHASE-1/mln/lesions_cv24/MAIN/data1/split_data_yolov11ncls/data1/test... found 8099 images in 3 classes ✅
Overriding model.yaml nc=80 with nc=3

                   from  n    params  module                                       arguments
  0                  -1  1      1856  ultralytics.nn.modules.conv.Conv             [3, 64, 3, 2]
  1                  -1  1     73984  ultralytics.nn.modules.conv.Conv             [64, 128, 3, 2]
  2                  -1  2    173824  ultralytics.nn.modules.block.C3k2            [128, 256, 2, True, 0.25]
  3                  -1  1    590336  ultralytics.nn.modules.conv.Conv             [256, 256, 3, 2]
  4                  -1  2    691712  ultralytics.nn.modules.block.C3k2            [256, 512, 2, True, 0.25]
  5                  -1  1   2360320  ultralytics.nn.modules.conv.Conv             [512, 512, 3, 2]
  6                  -1  2   2234368  ultralytics.nn.modules.block.C3k2            [512, 512, 2, True]
  7                  -1  1   2360320  ultralytics.nn.modules.conv.Conv             [512, 512, 3, 2]
  8                  -1  2   2234368  ultralytics.nn.modules.block.C3k2            [512, 512, 2, True]
  9                  -1  2   1455616  ultralytics.nn.modules.block.C2PSA           [512, 512, 2]
 10                  -1  1    661763  ultralytics.nn.modules.head.Classify         [512, 3]
YOLO11l-cls summary: 309 layers, 12,838,467 parameters, 12,838,467 gradients, 49.8 GFLOPs
Transferred 492/494 items from pretrained weights
[34m[1mAMP: [0mrunning Automatic Mixed Precision (AMP) checks...
[34m[1mAMP: [0mchecks passed ✅
[34m[1mtrain: [0mScanning /home/endodl/PHASE-1/mln/lesions_cv24/MAIN/data1/split_data_yolov11ncls/data1/train... 5188 images, 0 corrupt:  14%|█▎        | 5188/37783 [00:03<00:19, 169[0m
…
